…
{'dataset_path': '/home/biorobotics/Downloads/DAVIS/JPEGImages/480p', 'dataset_videos': 'train', 'num_videos': 4, 'video_alpha': 1.0, 'ground_plane_alpha': 1.0, 'dynamic': True, 'shuffle_buffer_size': None}
BACKGROUND KWARGS {'num_videos': None, 'video_alpha': 1.0, 'ground_plane_alpha': 1.0, 'dynamic': True, 'dataset_path': '/home/biorobotics/Downloads/DAVIS/JPEGImages/480p', 'dataset_videos': 'val', 'shuffle_buffer_size': None}
{'dataset_path': '/home/biorobotics/Downloads/DAVIS/JPEGImages/480p', 'dataset_videos': 'val', 'num_videos': None, 'video_alpha': 1.0, 'ground_plane_alpha': 1.0, 'dynamic': True, 'shuffle_buffer_size': None}
dmc.cheetah.run
39200 50 1024 6
Augment: RandomShiftsAug_84()
AuxiliaryTask: CFAPredictor(
  (aseq_fc): Sequential(
    (0): Linear(in_features=30, out_features=5, bias=True)
  )
  (omeg_fc): Sequential(
    (0): Linear(in_features=5, out_features=5, bias=True)
  )
  (rseq_fc): Sequential(
    (0): Linear(in_features=5, out_features=5, bias=True)
  )
  (predictor): Sequential(
    (0): Linear(in_features=60, out_features=1024, bias=True)
    (1): Swish()
    (2): Linear(in_features=1024, out_features=1024, bias=True)
    (3): Swish()
    (4): Linear(in_features=1024, out_features=14, bias=True)
  )
)
Extractor: PixelExtractor(
  (convs): ModuleList(
    (0): Conv2d(9, 32, kernel_size=(3, 3), stride=(2, 2))
    (1-3): 3 x Conv2d(32, 32, kernel_size=(3, 3), stride=(1, 1))
  )
)
Target Extractor: PixelExtractor(
  (convs): ModuleList(
    (0): Conv2d(9, 32, kernel_size=(3, 3), stride=(2, 2))
    (1-3): 3 x Conv2d(32, 32, kernel_size=(3, 3), stride=(1, 1))
  )
)
Critic: EnsembleCritic(
  (trunk): Sequential(
    (0): Linear(in_features=39200, out_features=50, bias=True)
    (1): LayerNorm((50,), eps=1e-05, elementwise_affine=True)
  )
  (q): Sequential(
    (0): EnsembleLinear(in_features=56, out_features=1024, in_channels=2, bias=True)
    (1): ReLU(inplace=True)
    (2): EnsembleLinear(in_features=1024, out_features=1024, in_channels=2, bias=True)
    (3): ReLU(inplace=True)
    (4): EnsembleLinear(in_features=1024, out_features=1, in_channels=2, bias=True)
  )
)
Actor: SGMLPActor(
  (trunk): Sequential(
    (0): Linear(in_features=39200, out_features=50, bias=True)
    (1): LayerNorm((50,), eps=1e-05, elementwise_affine=True)
  )
  (pi_trunk): Sequential(
    (0): Linear(in_features=50, out_features=1024, bias=True)
    (1): ReLU(inplace=True)
    (2): Linear(in_features=1024, out_features=1024, bias=True)
    (3): ReLU(inplace=True)
  )
  (pi_mean): Sequential(
    (0): Linear(in_features=1024, out_features=6, bias=True)
  )
  (pi_logstd): Sequential(
    (0): Linear(in_features=1024, out_features=6, bias=True)
  )
)
CURL: CURL(
  (extr): PixelExtractor(
    (convs): ModuleList(
      (0): Conv2d(9, 32, kernel_size=(3, 3), stride=(2, 2))
      (1-3): 3 x Conv2d(32, 32, kernel_size=(3, 3), stride=(1, 1))
    )
  )
  (trunk): Sequential(
    (0): Linear(in_features=39200, out_features=50, bias=True)
    (1): LayerNorm((50,), eps=1e-05, elementwise_affine=True)
  )
  (extr_targ): PixelExtractor(
    (convs): ModuleList(
      (0): Conv2d(9, 32, kernel_size=(3, 3), stride=(2, 2))
      (1-3): 3 x Conv2d(32, 32, kernel_size=(3, 3), stride=(1, 1))
    )
  )
  (trunk_targ): Sequential(
    (0): Linear(in_features=39200, out_features=50, bias=True)
    (1): LayerNorm((50,), eps=1e-05, elementwise_affine=True)
  )
)
<class 'numpy.ndarray'>
Total T: 250 Reward: 9.209 Episode Num: 0 Episode T: 250 Time: 0:00:05
<class 'numpy.ndarray'>
Total T: 500 Reward: 8.115 Episode Num: 1 Episode T: 250 Time: 0:00:10
<class 'numpy.ndarray'>
Total T: 750 Reward: 10.576 Episode Num: 2 Episode T: 250 Time: 0:00:15
<class 'numpy.ndarray'>
Total T: 1000 Reward: 8.102 Episode Num: 3 Episode T: 250 Time: 0:00:20
…
